…
2025-03-30 18:04:06,037 - __main__ - INFO - Using 100 speakers for model
2025-03-30 18:04:06,037 - __main__ - INFO - Creating SpeakerVerificationModel with backbone and LoRA
2025-03-30 18:04:06,040 - __main__ - INFO - Applying LoRA configuration to model
2025-03-30 18:04:06,098 - __main__ - INFO - Finetuned model structure: PeftModelForFeatureExtraction(
  (base_model): LoraModel(
    (model): SpeakerVerificationModel(
      (backbone): WavLMModel(
        (feature_extractor): WavLMFeatureEncoder(
          (conv_layers): ModuleList(
            (0): WavLMGroupNormConvLayer(
              (conv): Conv1d(1, 512, kernel_size=(10,), stride=(5,), bias=False)
              (activation): GELUActivation()
              (layer_norm): GroupNorm(512, 512, eps=1e-05, affine=True)
            )
            (1-4): 4 x WavLMNoLayerNormConvLayer(
              (conv): Conv1d(512, 512, kernel_size=(3,), stride=(2,), bias=False)
              (activation): GELUActivation()
            )
            (5-6): 2 x WavLMNoLayerNormConvLayer(
              (conv): Conv1d(512, 512, kernel_size=(2,), stride=(2,), bias=False)
              (activation): GELUActivation()
            )
          )
        )
        (feature_projection): WavLMFeatureProjection(
          (layer_norm): LayerNorm((512,), eps=1e-05, elementwise_affine=True)
          (projection): Linear(in_features=512, out_features=768, bias=True)
          (dropout): Dropout(p=0.1, inplace=False)
        )
        (encoder): WavLMEncoder(
          (pos_conv_embed): WavLMPositionalConvEmbedding(
            (conv): ParametrizedConv1d(
              768, 768, kernel_size=(128,), stride=(1,), padding=(64,), groups=16
              (parametrizations): ModuleDict(
                (weight): ParametrizationList(
                  (0): _WeightNorm()
                )
              )
            )
            (padding): WavLMSamePadLayer()
            (activation): GELUActivation()
          )
          (layer_norm): LayerNorm((768,), eps=1e-05, elementwise_affine=True)
          (dropout): Dropout(p=0.1, inplace=False)
          (layers): ModuleList(
            (0): WavLMEncoderLayer(
              (attention): WavLMAttention(
                (k_proj): lora.Linear(
                  (base_layer): Linear(in_features=768, out_features=768, bias=True)
                  (lora_dropout): ModuleDict(
                    (default): Dropout(p=0.1, inplace=False)
                  )
                  (lora_A): ModuleDict(
                    (default): Linear(in_features=768, out_features=16, bias=False)
                  )
                  (lora_B): ModuleDict(
                    (default): Linear(in_features=16, out_features=768, bias=False)
                  )
                  (lora_embedding_A): ParameterDict()
                  (lora_embedding_B): ParameterDict()
                  (lora_magnitude_vector): ModuleDict()
                )
                (v_proj): lora.Linear(
                  (base_layer): Linear(in_features=768, out_features=768, bias=True)
                  (lora_dropout): ModuleDict(
                    (default): Dropout(p=0.1, inplace=False)
                  )
                  (lora_A): ModuleDict(
                    (default): Linear(in_features=768, out_features=16, bias=False)
                  )
                  (lora_B): ModuleDict(
                    (default): Linear(in_features=16, out_features=768, bias=False)
                  )
                  (lora_embedding_A): ParameterDict()
                  (lora_embedding_B): ParameterDict()
                  (lora_magnitude_vector): ModuleDict()
                )
                (q_proj): lora.Linear(
                  (base_layer): Linear(in_features=768, out_features=768, bias=True)
                  (lora_dropout): ModuleDict(
                    (default): Dropout(p=0.1, inplace=False)
                  )
                  (lora_A): ModuleDict(
                    (default): Linear(in_features=768, out_features=16, bias=False)
                  )
                  (lora_B): ModuleDict(
                    (default): Linear(in_features=16, out_features=768, bias=False)
                  )
                  (lora_embedding_A): ParameterDict()
                  (lora_embedding_B): ParameterDict()
                  (lora_magnitude_vector): ModuleDict()
                )
                (out_proj): lora.Linear(
                  (base_layer): Linear(in_features=768, out_features=768, bias=True)
                  (lora_dropout): ModuleDict(
                    (default): Dropout(p=0.1, inplace=False)
                  )
                  (lora_A): ModuleDict(
                    (default): Linear(in_features=768, out_features=16, bias=False)
                  )
                  (lora_B): ModuleDict(
                    (default): Linear(in_features=16, out_features=768, bias=False)
                  )
                  (lora_embedding_A): ParameterDict()
                  (lora_embedding_B): ParameterDict()
                  (lora_magnitude_vector): ModuleDict()
                )
                (gru_rel_pos_linear): Linear(in_features=64, out_features=8, bias=True)
                (rel_attn_embed): Embedding(320, 12)
              )
              (dropout): Dropout(p=0.1, inplace=False)
              (layer_norm): LayerNorm((768,), eps=1e-05, elementwise_affine=True)
              (feed_forward): WavLMFeedForward(
                (intermediate_dropout): Dropout(p=0.0, inplace=False)
                (intermediate_dense): Linear(in_features=768, out_features=3072, bias=True)
                (intermediate_act_fn): GELUActivation()
                (output_dense): Linear(in_features=3072, out_features=768, bias=True)
                (output_dropout): Dropout(p=0.1, inplace=False)
              )
              (final_layer_norm): LayerNorm((768,), eps=1e-05, elementwise_affine=True)
            )
            (1-11): 11 x WavLMEncoderLayer(
              (attention): WavLMAttention(
                (k_proj): lora.Linear(
                  (base_layer): Linear(in_features=768, out_features=768, bias=True)
                  (lora_dropout): ModuleDict(
                    (default): Dropout(p=0.1, inplace=False)
                  )
                  (lora_A): ModuleDict(
                    (default): Linear(in_features=768, out_features=16, bias=False)
                  )
                  (lora_B): ModuleDict(
                    (default): Linear(in_features=16, out_features=768, bias=False)
                  )
                  (lora_embedding_A): ParameterDict()
                  (lora_embedding_B): ParameterDict()
                  (lora_magnitude_vector): ModuleDict()
                )
                (v_proj): lora.Linear(
                  (base_layer): Linear(in_features=768, out_features=768, bias=True)
                  (lora_dropout): ModuleDict(
                    (default): Dropout(p=0.1, inplace=False)
                  )
                  (lora_A): ModuleDict(
                    (default): Linear(in_features=768, out_features=16, bias=False)
                  )
                  (lora_B): ModuleDict(
                    (default): Linear(in_features=16, out_features=768, bias=False)
                  )
                  (lora_embedding_A): ParameterDict()
                  (lora_embedding_B): ParameterDict()
                  (lora_magnitude_vector): ModuleDict()
                )
                (q_proj): lora.Linear(
                  (base_layer): Linear(in_features=768, out_features=768, bias=True)
                  (lora_dropout): ModuleDict(
                    (default): Dropout(p=0.1, inplace=False)
                  )
                  (lora_A): ModuleDict(
                    (default): Linear(in_features=768, out_features=16, bias=False)
                  )
                  (lora_B): ModuleDict(
                    (default): Linear(in_features=16, out_features=768, bias=False)
                  )
                  (lora_embedding_A): ParameterDict()
                  (lora_embedding_B): ParameterDict()
                  (lora_magnitude_vector): ModuleDict()
                )
                (out_proj): lora.Linear(
                  (base_layer): Linear(in_features=768, out_features=768, bias=True)
                  (lora_dropout): ModuleDict(
                    (default): Dropout(p=0.1, inplace=False)
                  )
                  (lora_A): ModuleDict(
                    (default): Linear(in_features=768, out_features=16, bias=False)
                  )
                  (lora_B): ModuleDict(
                    (default): Linear(in_features=16, out_features=768, bias=False)
                  )
                  (lora_embedding_A): ParameterDict()
                  (lora_embedding_B): ParameterDict()
                  (lora_magnitude_vector): ModuleDict()
                )
                (gru_rel_pos_linear): Linear(in_features=64, out_features=8, bias=True)
              )
              (dropout): Dropout(p=0.1, inplace=False)
              (layer_norm): LayerNorm((768,), eps=1e-05, elementwise_affine=True)
              (feed_forward): WavLMFeedForward(
                (intermediate_dropout): Dropout(p=0.0, inplace=False)
                (intermediate_dense): Linear(in_features=768, out_features=3072, bias=True)
                (intermediate_act_fn): GELUActivation()
                (output_dense): Linear(in_features=3072, out_features=768, bias=True)
                (output_dropout): Dropout(p=0.1, inplace=False)
              )
              (final_layer_norm): LayerNorm((768,), eps=1e-05, elementwise_affine=True)
            )
          )
        )
      )
      (arcface): ArcFaceLayer()
    )
  )
)
2025-03-30 18:04:06,099 - __main__ - INFO - Attempting to load weights using PEFT's load_peft_weights: models/speaker_verification/wavlm_ft/best_model.pt
2025-03-30 18:04:06,099 - __main__ - WARNING - Could not use PEFT's load_peft_weights: expected str, bytes or os.PathLike object, not PeftModelForFeatureExtraction
…
